…
Some weights of the model checkpoint at seyonec/ChemBERTa-zinc-base-v1 were not used when initializing RobertaForMaskedLM: ['roberta.pooler.dense.bias', 'roberta.pooler.dense.weight']
- This IS expected if you are initializing RobertaForMaskedLM from the checkpoint of a model trained on another task or with another architecture (e.g. initializing a BertForSequenceClassification model from a BertForPreTraining model).
- This IS NOT expected if you are initializing RobertaForMaskedLM from the checkpoint of a model that you expect to be exactly identical (initializing a BertForSequenceClassification model from a BertForSequenceClassification model).
roberta RobertaModel(
  (embeddings): RobertaEmbeddings(
    (word_embeddings): Embedding(767, 768, padding_idx=1)
    (position_embeddings): Embedding(514, 768, padding_idx=1)
    (token_type_embeddings): Embedding(1, 768)
    (LayerNorm): LayerNorm((768,), eps=1e-05, elementwise_affine=True)
    (dropout): Dropout(p=0.1, inplace=False)
  )
  (encoder): RobertaEncoder(
    (layer): ModuleList(
      (0-5): 6 x RobertaLayer(
        (attention): RobertaAttention(
          (self): RobertaSelfAttention(
            (query): Linear(in_features=768, out_features=768, bias=True)
            (key): Linear(in_features=768, out_features=768, bias=True)
            (value): Linear(in_features=768, out_features=768, bias=True)
            (dropout): Dropout(p=0.1, inplace=False)
          )
          (output): RobertaSelfOutput(
            (dense): Linear(in_features=768, out_features=768, bias=True)
            (LayerNorm): LayerNorm((768,), eps=1e-05, elementwise_affine=True)
            (dropout): Dropout(p=0.1, inplace=False)
          )
        )
        (intermediate): RobertaIntermediate(
          (dense): Linear(in_features=768, out_features=3072, bias=True)
          (intermediate_act_fn): GELUActivation()
        )
        (output): RobertaOutput(
          (dense): Linear(in_features=3072, out_features=768, bias=True)
          (LayerNorm): LayerNorm((768,), eps=1e-05, elementwise_affine=True)
          (dropout): Dropout(p=0.1, inplace=False)
        )
      )
    )
  )
)
lm_head RobertaLMHead(
  (dense): Linear(in_features=768, out_features=768, bias=True)
  (layer_norm): LayerNorm((768,), eps=1e-05, elementwise_affine=True)
  (decoder): Linear(in_features=768, out_features=767, bias=True)
)
Epoch 0
MaskedLMOutput(loss=tensor(9.4185, device='cuda:0'), logits=tensor([[[-1.8192, -1.5414, -2.3098,  ..., -1.2655, -2.0790, -3.0214],
         [-2.0465, -2.0480, -1.6714,  ..., -0.9950, -3.1861, -3.2253],
         [-1.4915, -3.3457, -3.4507,  ..., -2.0474, -2.4181, -0.7472],
         ...,
         [-1.9217, -2.0772, -3.0669,  ..., -1.3146, -2.4968, -3.8813],
…
