…
Traceback (most recent call last):
  File "/nfs/lambda_stor_01/data/avasan/LLM_Chemistry/ChemBerta/t5-chem/run_script.py", line 173, in <module>
    train_one_epoch(epoch)
  File "/nfs/lambda_stor_01/data/avasan/LLM_Chemistry/ChemBerta/t5-chem/run_script.py", line 80, in train_one_epoch
    encoder = outputs["encoder_last_hidden_state"]
  File "/homes/avasan/miniforge3_new/envs/sst_llama/lib/python3.10/site-packages/transformers/utils/generic.py", line 434, in __getitem__
    return inner_dict[k]
KeyError: 'encoder_last_hidden_state'
roberta RobertaModel(
  (embeddings): RobertaEmbeddings(
    (word_embeddings): Embedding(767, 768, padding_idx=1)
    (position_embeddings): Embedding(514, 768, padding_idx=1)
    (token_type_embeddings): Embedding(1, 768)
    (LayerNorm): LayerNorm((768,), eps=1e-05, elementwise_affine=True)
    (dropout): Dropout(p=0.1, inplace=False)
  )
  (encoder): RobertaEncoder(
    (layer): ModuleList(
      (0-5): 6 x RobertaLayer(
        (attention): RobertaAttention(
          (self): RobertaSelfAttention(
            (query): Linear(in_features=768, out_features=768, bias=True)
            (key): Linear(in_features=768, out_features=768, bias=True)
            (value): Linear(in_features=768, out_features=768, bias=True)
            (dropout): Dropout(p=0.1, inplace=False)
          )
          (output): RobertaSelfOutput(
            (dense): Linear(in_features=768, out_features=768, bias=True)
            (LayerNorm): LayerNorm((768,), eps=1e-05, elementwise_affine=True)
            (dropout): Dropout(p=0.1, inplace=False)
          )
        )
        (intermediate): RobertaIntermediate(
          (dense): Linear(in_features=768, out_features=3072, bias=True)
          (intermediate_act_fn): GELUActivation()
        )
        (output): RobertaOutput(
          (dense): Linear(in_features=3072, out_features=768, bias=True)
          (LayerNorm): LayerNorm((768,), eps=1e-05, elementwise_affine=True)
          (dropout): Dropout(p=0.1, inplace=False)
        )
      )
    )
  )
)
lm_head RobertaLMHead(
  (dense): Linear(in_features=768, out_features=768, bias=True)
  (layer_norm): LayerNorm((768,), eps=1e-05, elementwise_affine=True)
  (decoder): Linear(in_features=768, out_features=767, bias=True)
)
Epoch 0
MaskedLMOutput(loss=tensor(9.4408, device='cuda:0'), logits=tensor([[[-1.6496, -1.7702, -2.6045,  ..., -0.8230, -1.4954, -2.8339],
         [-1.7489, -1.3760, -1.9128,  ..., -0.5965, -3.0471, -3.4378],
         [-2.7831, -2.2965, -3.8073,  ..., -0.9518, -1.5477, -1.5211],
         ...,
         [-1.8464, -2.3008, -3.2725,  ..., -1.2311, -2.4933, -4.1398],
…
