…
- This IS NOT expected if you are initializing RobertaForMaskedLM from the checkpoint of a model that you expect to be exactly identical (initializing a BertForSequenceClassification model from a BertForSequenceClassification model).
/nfs/lambda_stor_01/data/avasan/LLM_Chemistry/MolFoundation/ChemBerta/data_utils.py:28: UserWarning: To copy construct from a tensor, it is recommended to use sourceTensor.clone().detach() or sourceTensor.clone().detach().requires_grad_(True), rather than torch.tensor(sourceTensor).
  "y_regression_values": torch.tensor(self.y_regression_values[idx]).to(self.device),
roberta RobertaModel(
  (embeddings): RobertaEmbeddings(
    (word_embeddings): Embedding(767, 768, padding_idx=1)
    (position_embeddings): Embedding(514, 768, padding_idx=1)
    (token_type_embeddings): Embedding(1, 768)
    (LayerNorm): LayerNorm((768,), eps=1e-05, elementwise_affine=True)
    (dropout): Dropout(p=0.1, inplace=False)
  )
  (encoder): RobertaEncoder(
    (layer): ModuleList(
      (0-5): 6 x RobertaLayer(
        (attention): RobertaAttention(
          (self): RobertaSelfAttention(
            (query): Linear(in_features=768, out_features=768, bias=True)
            (key): Linear(in_features=768, out_features=768, bias=True)
            (value): Linear(in_features=768, out_features=768, bias=True)
            (dropout): Dropout(p=0.1, inplace=False)
          )
          (output): RobertaSelfOutput(
            (dense): Linear(in_features=768, out_features=768, bias=True)
            (LayerNorm): LayerNorm((768,), eps=1e-05, elementwise_affine=True)
            (dropout): Dropout(p=0.1, inplace=False)
          )
        )
        (intermediate): RobertaIntermediate(
          (dense): Linear(in_features=768, out_features=3072, bias=True)
          (intermediate_act_fn): GELUActivation()
        )
        (output): RobertaOutput(
          (dense): Linear(in_features=3072, out_features=768, bias=True)
          (LayerNorm): LayerNorm((768,), eps=1e-05, elementwise_affine=True)
          (dropout): Dropout(p=0.1, inplace=False)
        )
      )
    )
  )
)
lm_head RobertaLMHead(
  (dense): Linear(in_features=768, out_features=768, bias=True)
  (layer_norm): LayerNorm((768,), eps=1e-05, elementwise_affine=True)
  (decoder): Linear(in_features=768, out_features=767, bias=True)
)
Epoch 0
MaskedLMOutput(loss=tensor(9.4320, device='cuda:0'), logits=tensor([[[-2.0150, -2.1908, -2.1771,  ..., -1.3734, -2.0723, -2.2958],
         [-1.8729, -2.3604, -2.5231,  ..., -0.6955, -2.9497, -2.5346],
         [-2.2622, -2.1664, -1.7571,  ..., -2.0278, -2.2910, -1.3742],
         ...,
         [-2.0533, -2.1187, -3.1751,  ..., -1.3197, -2.5156, -3.5013],
…
