…
Traceback (most recent call last):
  File "/nfs/lambda_stor_01/data/avasan/LLM_Chemistry/ChemBerta/t5-chem/run_script.py", line 173, in <module>
    train_one_epoch(epoch)
  File "/nfs/lambda_stor_01/data/avasan/LLM_Chemistry/ChemBerta/t5-chem/run_script.py", line 80, in train_one_epoch
    encoder = outputs["encoder_last_hidden_state"]
  File "/homes/avasan/miniforge3_new/envs/sst_llama/lib/python3.10/site-packages/transformers/utils/generic.py", line 434, in __getitem__
    return inner_dict[k]
KeyError: 'encoder_last_hidden_state'
roberta RobertaModel(
  (embeddings): RobertaEmbeddings(
    (word_embeddings): Embedding(767, 768, padding_idx=1)
    (position_embeddings): Embedding(514, 768, padding_idx=1)
    (token_type_embeddings): Embedding(1, 768)
    (LayerNorm): LayerNorm((768,), eps=1e-05, elementwise_affine=True)
    (dropout): Dropout(p=0.1, inplace=False)
  )
  (encoder): RobertaEncoder(
    (layer): ModuleList(
      (0-5): 6 x RobertaLayer(
        (attention): RobertaAttention(
          (self): RobertaSelfAttention(
            (query): Linear(in_features=768, out_features=768, bias=True)
            (key): Linear(in_features=768, out_features=768, bias=True)
            (value): Linear(in_features=768, out_features=768, bias=True)
            (dropout): Dropout(p=0.1, inplace=False)
          )
          (output): RobertaSelfOutput(
            (dense): Linear(in_features=768, out_features=768, bias=True)
            (LayerNorm): LayerNorm((768,), eps=1e-05, elementwise_affine=True)
            (dropout): Dropout(p=0.1, inplace=False)
          )
        )
        (intermediate): RobertaIntermediate(
          (dense): Linear(in_features=768, out_features=3072, bias=True)
          (intermediate_act_fn): GELUActivation()
        )
        (output): RobertaOutput(
          (dense): Linear(in_features=3072, out_features=768, bias=True)
          (LayerNorm): LayerNorm((768,), eps=1e-05, elementwise_affine=True)
          (dropout): Dropout(p=0.1, inplace=False)
        )
      )
    )
  )
)
lm_head RobertaLMHead(
  (dense): Linear(in_features=768, out_features=768, bias=True)
  (layer_norm): LayerNorm((768,), eps=1e-05, elementwise_affine=True)
  (decoder): Linear(in_features=768, out_features=767, bias=True)
)
Epoch 0
MaskedLMOutput(loss=tensor(9.3932, device='cuda:0'), logits=tensor([[[-2.4029, -2.5856, -2.4980,  ..., -1.5047, -2.1980, -2.8298],
         [-2.3994, -1.9148, -2.0686,  ..., -0.5854, -2.4659, -3.1049],
         [-2.4094, -2.4545, -2.1900,  ..., -1.9291, -1.9884, -2.7788],
         ...,
         [-2.4953, -2.3133, -2.9428,  ..., -1.2917, -2.2212, -3.4456],
…
