…
Some weights of the model checkpoint at seyonec/ChemBERTa-zinc-base-v1 were not used when initializing RobertaForMaskedLM: ['roberta.pooler.dense.bias', 'roberta.pooler.dense.weight']
- This IS expected if you are initializing RobertaForMaskedLM from the checkpoint of a model trained on another task or with another architecture (e.g. initializing a BertForSequenceClassification model from a BertForPreTraining model).
- This IS NOT expected if you are initializing RobertaForMaskedLM from the checkpoint of a model that you expect to be exactly identical (initializing a BertForSequenceClassification model from a BertForSequenceClassification model).
roberta RobertaModel(
  (embeddings): RobertaEmbeddings(
    (word_embeddings): Embedding(767, 768, padding_idx=1)
    (position_embeddings): Embedding(514, 768, padding_idx=1)
    (token_type_embeddings): Embedding(1, 768)
    (LayerNorm): LayerNorm((768,), eps=1e-05, elementwise_affine=True)
    (dropout): Dropout(p=0.1, inplace=False)
  )
  (encoder): RobertaEncoder(
    (layer): ModuleList(
      (0-5): 6 x RobertaLayer(
        (attention): RobertaAttention(
          (self): RobertaSelfAttention(
            (query): Linear(in_features=768, out_features=768, bias=True)
            (key): Linear(in_features=768, out_features=768, bias=True)
            (value): Linear(in_features=768, out_features=768, bias=True)
            (dropout): Dropout(p=0.1, inplace=False)
          )
          (output): RobertaSelfOutput(
            (dense): Linear(in_features=768, out_features=768, bias=True)
            (LayerNorm): LayerNorm((768,), eps=1e-05, elementwise_affine=True)
            (dropout): Dropout(p=0.1, inplace=False)
          )
        )
        (intermediate): RobertaIntermediate(
          (dense): Linear(in_features=768, out_features=3072, bias=True)
          (intermediate_act_fn): GELUActivation()
        )
        (output): RobertaOutput(
          (dense): Linear(in_features=3072, out_features=768, bias=True)
          (LayerNorm): LayerNorm((768,), eps=1e-05, elementwise_affine=True)
          (dropout): Dropout(p=0.1, inplace=False)
        )
      )
    )
  )
)
lm_head RobertaLMHead(
  (dense): Linear(in_features=768, out_features=768, bias=True)
  (layer_norm): LayerNorm((768,), eps=1e-05, elementwise_affine=True)
  (decoder): Linear(in_features=768, out_features=767, bias=True)
)
Epoch 0
MaskedLMOutput(loss=tensor(9.3588, device='cuda:0'), logits=tensor([[[-1.3121, -0.8264, -2.1825,  ..., -1.0796, -1.7651, -3.4829],
         [-1.8223, -1.7135, -2.1281,  ..., -0.9202, -3.2656, -3.1307],
         [-3.2245, -1.8258, -3.2559,  ..., -1.1980, -1.1297, -1.3733],
         ...,
         [-1.9720, -1.9420, -3.1795,  ..., -1.2730, -2.5129, -4.1318],
…
